Neural Network/MLP_model.pt (torch, 2703 bytes, 7 tensors)

fc1.weight f4 [3, 3]
0.30177483 -0.28740188 -0.076660335 -0.7186671 0.3698104 -0.16873157 0.08940657 0.7862527
-0.7454675
00000000: 3b82 9a3e 5726 93be 1800 9dbd 91fa 37bf
00000010: ca57 bd3e f8c7 2cbe cb1a b73d db47 493f
00000020: f5d6 3ebf

fc1.bias f4 [3]
-0.4840154 0.39654475 -0.11592287
00000000: ded0 f7be ea07 cb3e f868 edbd

fc2.weight f4 [3, 3]
0.037105888 -0.61170125 -0.8023418 0.20789509 0.06608692 -0.39787516 -0.31011772 0.06379962
0.16715574
00000000: 58fc 173d 7498 1cbf 4666 4dbf 73e2 543e
00000010: 9458 873d 4bb6 cbbe c0c7 9ebe 60a9 823d
00000020: e02a 2b3e

fc2.bias f4 [3]
0.12152384 -0.06569786 -0.27351356
00000000: 7ee1 f83d 9a8c 86bd f809 8cbe

fc3.weight f4 [3, 3]
0.09156573 -0.23477614 0.26948595 0.19292556 -0.6885136 0.38098127 -1.8343115e-07 -0.15080626
-0.29634416
00000000: d086 bb3d 2869 70be 10fa 893e 478e 453e
00000010: 6d42 30bf fa0f c33e 2cf5 44b4 f56c 1abe
00000020: 6cba 97be

fc3.bias f4 [3]
-0.3420593 -0.03395882 0.6816807
00000000: 6622 afbe 6718 0bbd a082 2e3f

fc4.weight f4 [1, 3]
-0.5561146 0.010554999 0.6221585
00000000: 875d 0ebf e0ee 2c3c c845 1f3f
