Neural Network/Models/MLP_model.pt (torch, 3087 bytes, 7 tensors)

fc1.weight f4 [6, 6]
0	0x3d9b1b21	0.07573534
1	0xbe2f6ac2	-0.17130569
2	0x3a1771f4	0.0005777173
3	0x3f4397e9	0.7640367
4	0x3e557716	0.20846209
5	0x3f5d10e7	0.86353916
6	0x3d9bdae4	0.076101094
7	0xbe8e0d7b	-0.2774466
8	0xbdbd4034	-0.092407614
9	0x40fbadd5	7.8649697
10	0x40ec652a	7.387349
11	0x40500af9	3.2506697
12	0x3cdbb9a4	0.026821919
13	0x3d89d451	0.06729949
14	0xbdd25a94	-0.10271183
15	0xbea74efd	-0.3267745
16	0xbeef385c	-0.46722686
17	0xbf17b454	-0.59259534
18	0x3e3f1507	0.18660365
19	0xbe3a40e4	-0.18188816
20	0x3e79b77a	0.24386397
21	0xbefe1dae	-0.4963202
22	0xbebf93f0	-0.37417555
23	0xbf0176d0	-0.5057192
24	0x3ef8f53d	0.48624602
25	0x3df91dd2	0.12163891
26	0xbf01d03c	-0.50708365
27	0x40dd491a	6.9151735
28	0x40e2951f	7.0807033
29	0x40e58463	7.1724105
30	0xbe71c750	-0.23611188
31	0xbd746f42	-0.059676416
32	0x369c534d	4.65886e-06
33	0xbe8b55ef	-0.27214
34	0xbea094e3	-0.31363592
35	0xbe3c44a4	-0.1838556

fc1.bias f4 [6]
0	0xbf9e1070	-1.2348766
1	0xc075063a	-3.828505
2	0xbc99b0e3	-0.018761104
3	0xbe34ffa3	-0.17675643
4	0xc07b3179	-3.9248946
5	0xbe72a93c	-0.2369737

fc2.weight f4 [6, 6]
0	0x3e2bce6d	0.16777964
1	0xbe2d2461	-0.16908409
2	0x3e296f10	0.16546273
3	0xbeb1a463	-0.3469573
4	0xbef33baa	-0.47506458
5	0x3e613f8d	0.21996899
6	0x3e243704	0.16036612
7	0x3eb07f53	0.3447214
8	0xbcbf276f	-0.023334233
9	0x3bdadaed	0.00667893
10	0x3f3f3d2d	0.7470272
11	0xbf1a287b	-0.6021802
12	0xbe928a31	-0.28621057
13	0x3efe10c4	0.49622166
14	0xbda4234a	-0.08014543
15	0x3d6a4364	0.057193175
16	0x3ed681ef	0.41896006
17	0xbedfbc4f	-0.43698356
18	0x3d9c6b8a	0.07637699
19	0x403a73e7	2.913324
20	0xbd86ac5e	-0.06575845
21	0xbe8bfe69	-0.27342537
22	0x40b4f959	5.655438
23	0xbceceae6	-0.028920602
24	0xbf3bd98a	-0.73378813
25	0xbe61f459	-0.22065867
26	0xbc2cca20	-0.010546237
27	0xbd2dd870	-0.04244274
28	0x402fef42	2.7489781
29	0xbea038f6	-0.31293458
30	0xbe59f879	-0.21286191
31	0x3c4e4efd	0.012592074
32	0xbe3e6312	-0.1859248
33	0xbdc7a6ec	-0.09748635
34	0xbee6cfc2	-0.45080382
35	0xbe267ff1	-0.16259743

fc2.bias f4 [6]
0	0xbe259d50	-0.16173291
1	0xbfb82bab	-1.4388326
2	0xbf99f554	-1.2027993
3	0xc00003b5	-2.0002263
4	0xc00c8b73	-2.1960113
5	0xbe997c0d	-0.29977456

fc3.weight f4 [6, 6]
0	0xbe6924e6	-0.22767982
1	0xbecac0c3	-0.3960019
2	0xbf0bc8b0	-0.546031
3	0x3f87b352	1.0601599
4	0x405b3f98	3.4257565
5	0x3f1025cc	0.56307673
6	0x3c89e5c4	0.016833194
7	0xbe0917fa	-0.13388053
8	0xbe0b8205	-0.13623817
9	0x40224d24	2.5359583
10	0x3ea414ae	0.32047027
11	0xbe032f21	-0.12810947
12	0xbe0a9904	-0.13534933
13	0x3de10598	0.10987395
14	0x3dbc3ba0	0.0919106
15	0xbec62092	-0.38696724
16	0xbeae10ce	-0.33997196
17	0xbe2614f8	-0.16218936
18	0x3e89f362	0.269435
19	0xbe22672a	-0.15859666
20	0xbe202254	-0.15638095
21	0xbebbf621	-0.3671122
22	0xbd9cdd80	-0.07659435
23	0x3e24dee0	0.16100645
24	0xbd9f5322	-0.07779528
25	0xbf12ab13	-0.5729229
26	0xbf1ef47a	-0.6209179
27	0x3e1279dc	0.14304298
28	0xbf2db3bf	-0.67852396
29	0x3d085908	0.03328803
30	0x3ead32f7	0.33827946
31	0xbeb3b39c	-0.3509797
32	0xbe815744	-0.2526189
33	0xbf101221	-0.5627766
34	0x3f0b00c6	0.54298055
35	0x3e005208	0.12531292

fc3.bias f4 [6]
0	0xc031cfca	-2.7783074
1	0xbdbbeb3b	-0.09175726
2	0xbe54ad52	-0.20769241
3	0xbe423668	-0.18966067
4	0xbf904c76	-1.1273334
5	0xbfba5248	-1.455636

fc4.weight f4 [1, 6]
0	0xbe945567	-0.28971407
1	0xbfbab6c0	-1.4587021
2	0xbe785d34	-0.24254304
3	0xbe963b55	-0.29342142
4	0xbd3b7901	-0.045769695
5	0xbf33e400	-0.70269775
